…
[CUSTOM DEBUG] comm init_distributed called
[CUSTOM DEBUG] Initializing DeepSpeedEngine without PipelineModule
[CUSTOM DEBUG] Initializing DeepSpeedEngine with config: <deepspeed.runtime.config.DeepSpeedConfig object at 0x727d58184750>
[CUSTOM DEBUG] Initializing DeepSpeedEngine with has_moe_layers: False, num_experts: [], gate_modules: [], moe_layers: []
No existing process group found, creating a new group named: ep_size_2
No existing process group found, creating a new group named: ep_size_2
[Rank 0] time (ms)
0 <bound method DeepSpeedEngine.wall_clock_breakdown of DeepSpeedEngine(
  (module): MoEGPT(
    (token_emb): Embedding(50257, 256)
    (pos_emb): Embedding(128, 256)
    (layers): ModuleList(
      (0-5): 6 x TransformerBlock(
        (ln_attn): LayerNorm((256,), eps=1e-05, elementwise_affine=True)
        (attn): MultiheadAttention(
          (out_proj): NonDynamicallyQuantizableLinear(in_features=256, out_features=256, bias=True)
        )
        (ln_ffn): LayerNorm((256,), eps=1e-05, elementwise_affine=True)
        (moe): MoE(
          (deepspeed_moe): MOELayer(
            (gate): TopKGate(
              (wg): Linear(in_features=256, out_features=8, bias=False)
            )
            (experts): Experts(
              (deepspeed_experts): ModuleList(
                (0-3): 4 x Sequential(
                  (0): Linear(in_features=256, out_features=1024, bias=True)
                  (1): GELU(approximate='none')
                  (2): Linear(in_features=1024, out_features=256, bias=True)
                )
              )
            )
          )
        )
      )
    )
    (ln_f): LayerNorm((256,), eps=1e-05, elementwise_affine=True)
    (head): Linear(in_features=256, out_features=50257, bias=False)
  )
)>
1 <bound method DeepSpeedEngine.wall_clock_breakdown of DeepSpeedEngine(
  (module): MoEGPT(
    (token_emb): Embedding(50257, 256)
    (pos_emb): Embedding(128, 256)
    (layers): ModuleList(
      (0-5): 6 x TransformerBlock(
        (ln_attn): LayerNorm((256,), eps=1e-05, elementwise_affine=True)
        (attn): MultiheadAttention(
          (out_proj): NonDynamicallyQuantizableLinear(in_features=256, out_features=256, bias=True)
        )
        (ln_ffn): LayerNorm((256,), eps=1e-05, elementwise_affine=True)
        (moe): MoE(
          (deepspeed_moe): MOELayer(
            (gate): TopKGate(
              (wg): Linear(in_features=256, out_features=8, bias=False)
            )
            (experts): Experts(
              (deepspeed_experts): ModuleList(
                (0-3): 4 x Sequential(
                  (0): Linear(in_features=256, out_features=1024, bias=True)
                  (1): GELU(approximate='none')
                  (2): Linear(in_features=1024, out_features=256, bias=True)
                )
              )
            )
          )
        )
      )
    )
    (ln_f): LayerNorm((256,), eps=1e-05, elementwise_affine=True)
    (head): Linear(in_features=256, out_features=50257, bias=False)
  )
)>
Rank 1 | input_split_sizes: [1296, 2800]
Rank 0 | input_split_sizes: [1110, 2986]
Layer: 0, indices: tensor([7, 7, 7,  ..., 7, 7, 7]), len: 4096, per Layer exp-count: [ 393  403  228  272   70  413  662 1655]
Layer: 0, indices: tensor([3, 7, 3,  ..., 1, 7, 7]), len: 4096, per Layer exp-count: [ 362  213  181  354   51  405  477 2053]
Rank 1 | input_split_sizes: [2958, 1138]Rank 0 | input_split_sizes: [3392, 704]
…
