…
to_all_single', 'all_to_all']}, 'flops_profiler': {'enabled': False, 'profile_step': 5, 'module_depth': -1, 'top_modules': 3, 'detailed': True, 'output_file': 'flops_profile.txt'}, 'wall_clock_breakdown': False}
Group 'parameters': 58 params
Group 'ep_size_2': 96 params
No existing process group found, creating a new group named: ep_size_2
Group 'parameters': 58 params
Group 'ep_size_2': 96 params
No existing process group found, creating a new group named: ep_size_2
[Rank 0] time (ms)
0 1 <bound method DeepSpeedEngine.wall_clock_breakdown of DeepSpeedEngine(
  (module): MoEGPT(
    (token_emb): Embedding(50257, 256)
    (pos_emb): Embedding(128, 256)
    (layers): ModuleList(
      (0-5): 6 x TransformerBlock(
        (ln_attn): LayerNorm((256,), eps=1e-05, elementwise_affine=True)
        (attn): MultiheadAttention(
          (out_proj): NonDynamicallyQuantizableLinear(in_features=256, out_features=256, bias=True)
        )
        (ln_ffn): LayerNorm((256,), eps=1e-05, elementwise_affine=True)
        (moe): MoE(
          (deepspeed_moe): MOELayer(
            (gate): TopKGate(
              (wg): Linear(in_features=256, out_features=8, bias=False)
            )
            (experts): Experts(
              (deepspeed_experts): ModuleList(
                (0-3): 4 x Sequential(
                  (0): Linear(in_features=256, out_features=1024, bias=True)
                  (1): GELU(approximate='none')
                  (2): Linear(in_features=1024, out_features=256, bias=True)
                )
              )
            )
          )
        )
      )
    )
    (ln_f): LayerNorm((256,), eps=1e-05, elementwise_affine=True)
    (head): Linear(in_features=256, out_features=50257, bias=False)
  )
)>
<bound method DeepSpeedEngine.wall_clock_breakdown of DeepSpeedEngine(
  (module): MoEGPT(
    (token_emb): Embedding(50257, 256)
    (pos_emb): Embedding(128, 256)
    (layers): ModuleList(
      (0-5): 6 x TransformerBlock(
        (ln_attn): LayerNorm((256,), eps=1e-05, elementwise_affine=True)
        (attn): MultiheadAttention(
          (out_proj): NonDynamicallyQuantizableLinear(in_features=256, out_features=256, bias=True)
        )
        (ln_ffn): LayerNorm((256,), eps=1e-05, elementwise_affine=True)
        (moe): MoE(
          (deepspeed_moe): MOELayer(
            (gate): TopKGate(
              (wg): Linear(in_features=256, out_features=8, bias=False)
            )
            (experts): Experts(
              (deepspeed_experts): ModuleList(
                (0-3): 4 x Sequential(
                  (0): Linear(in_features=256, out_features=1024, bias=True)
                  (1): GELU(approximate='none')
                  (2): Linear(in_features=1024, out_features=256, bias=True)
                )
              )
            )
          )
        )
      )
    )
    (ln_f): LayerNorm((256,), eps=1e-05, elementwise_affine=True)
    (head): Linear(in_features=256, out_features=50257, bias=False)
  )
)>
Step 0000 | Loss 10.9741 | Aux 7.56390 | Step nanms | Tokens/sec warming up
Step 0001 | Loss 10.9565 | Aux 7.37147 | Step nanms | Tokens/sec warming up
Step 0002 | Loss 10.9899 | Aux 7.58366 | Step nanms | Tokens/sec warming up
Step 0003 | Loss 10.9740 | Aux 7.55982 | Step nanms | Tokens/sec warming up
Step 0004 | Loss 10.9719 | Aux 7.34382 | Step nanms | Tokens/sec warming up
…
